Model Weights/ViT/Best_ViT_model_CIFAR10_73.pth (torch, 128061 bytes, 200 tensors)

class_token f4 [1, 1, 12]
000000 86 7d b3 3e c8 25 3a bd b5 f0 81 3e e3 d2 d5 3e
       0.35056704 -0.045446187 0.25378957 0.41762456
000010 b2 81 6b 3d 50 db a3 be b3 be 05 3f 52 c9 0b be
       0.057496734 -0.3200326 0.5224411 -0.13651016
000020 03 67 f7 be c6 db 23 be a8 9b b4 be 24 1e c3 be
       -0.4832078 -0.16001806 -0.35275006 -0.38108933

pos_encod f4 [1, 257, 12]
000000 7d 69 3b bf f7 71 66 3f c3 62 9b be c1 18 24 bf
       -0.7320784 0.90017647 -0.30348787 -0.6410027
000010 09 0a dc bf 1d 65 3f 40 34 42 35 bf fb 0f 6a 3e
       -1.7190562 2.9905465 -0.7080414 0.22857659
000020 ff 00 a5 bf 9b 20 c1 bf ea b6 b1 be 30 30 dd bf
       -1.2890929 -1.5088075 -0.34709865 -1.7280331
000030 e3 bd e2 bd 7d 33 ce 3d 5d 81 cb 3d a8 d6 61 3c
       -0.11071374 0.10068414 0.099367835 0.013784088
000040 a4 76 86 bc 4e dc d1 3d 75 14 e3 3d 76 d6 3b be
       -0.016413994 0.10247098 0.11087886 -0.18343529
000050 ca a0 99 bc 90 4f f3 3c 89 cf 8a bd d8 88 0b 3e
       -0.018753428 0.029701024 -0.067778654 0.1362642
000060 b8 2a bd bd 21 81 ee 3c 25 ec b1 3d 8e 46 e3 3c
       -0.092366636 0.029114308 0.08687619 0.027743604
000070 3e f2 95 be ea 71 71 3e ab ee cb 3d 97 b8 4d 3d
       -0.2928638 0.23578611 0.09957632 0.050224867
000080 f9 58 c6 bd f5 e3 51 be 97 84 53 bd fe e3 4b bd
       -0.09684939 -0.20497115 -0.05164012 -0.049777977
000090 42 9c 45 be 48 7c 53 3e ea 35 47 bd eb 9e 04 bd
       -0.19297889 0.20652878 -0.0486354 -0.03237812
0000a0 21 9e 89 3d a1 49 5d 3d 71 d1 9c 3d 91 c8 24 be
       0.06719614 0.054025296 0.07657135 -0.16092135
0000b0 60 30 0d bd 68 b5 81 3b 3c bf 3c bd c8 9b 83 3e
       -0.034469962 0.003958393 -0.046080813 0.2570479
0000c0 12 af 83 be 00 b9 4a 3d 4a 8b 9f be db e7 d1 3e
       -0.25719506 0.049492836 -0.31160957 0.40997204
0000d0 b1 f8 78 be 41 72 4b be 66 da 28 3f 00 cc 9e 3e
       -0.24313618 -0.19867803 0.6595825 0.31015015
0000e0 f8 61 87 bd 43 97 d1 be 2d 6d 61 bc 01 37 4b 3e
       -0.06610483 -0.40935716 -0.01375894 0.19845201
0000f0 02 7c d8 bd f4 c7 d5 bd 5c 4b be bc 2d b6 11 3d
       -0.105705276 -0.10438529 -0.023229294 0.035574127
000100 4f 49 10 be 68 a4 7e 3d ff bf 4d 3d aa d6 13 bd
       -0.14090465 0.06216851 0.05023193 -0.03609339
000110 99 d0 f0 bd 51 77 49 bd 5f 14 34 3c 5b 1a 38 3e
       -0.11758537 -0.049186055 0.010991185 0.17978804
000120 b6 ca 9b bd 72 e6 e7 bb c7 ff d8 bd 36 85 7e 3c
       -0.076070234 -0.007077032 -0.10595661 0.01553469
000130 5d 13 e5 bc 28 3a 3b 3e 01 08 d8 3d 8a 82 64 bd
       -0.027963335 0.18283904 0.105484016 -0.055788554
000140 78 88 04 be 3a 75 1b be f7 86 ee bc 78 2e 76 3c
       -0.12942684 -0.15181437 -0.02911709 0.015025727
000150 18 1e f2 bd ec 78 00 be 65 50 bf bd 7c 31 ce 3d
       -0.11822146 -0.12546128 -0.09341506 0.10068032
000160 92 bc dc bc e2 0f 35 3d 24 63 e7 3d 65 41 a1 be
       -0.026945386 0.0442046 0.112982064 -0.31495205
000170 4c b9 1d be 1d 41 d0 bd 00 12 9b bd 7a 5f 2d 3e
       -0.15402716 -0.101686694 -0.075717926 0.16930953
000180 74 36 bf bd ea 85 43 be 84 93 50 be e8 38 7f bd
       -0.09336558 -0.19094053 -0.20368773 -0.06231013
000190 40 77 6d be 66 1d 36 3e ba d9 38 3e 86 67 29 bd
       -0.23190022 0.17784652 0.18051806 -0.041358493
0001a0 a9 da 25 be b8 10 16 be d2 95 bd 3c 6c 38 c1 3e
       -0.16196693 -0.14654815 0.023142729 0.3773836
0001b0 5b de 55 be 16 ac fc 3d f8 4f 10 be 6e c8 a6 3e
       -0.20885603 0.1233751 -0.14093006 0.3257479
0001c0 a4 2c 87 be 76 ef 52 3e d7 ae 48 3d f3 d1 45 be
       -0.26401246 0.2059916 0.048994865 -0.1931837
0001d0 37 3a 2b be e5 47 b1 be 32 72 de bd 84 1a 23 3f
       -0.16721426 -0.34625164 -0.10861625 0.63712335
0001e0 4a e1 89 be a8 b4 07 3f 9f f9 97 be 63 28 9a 3e
       -0.26929694 0.53010035 -0.29682633 0.30108938
0001f0 f6 5f 25 be 8d 56 19 be 3f b5 0f 3f 94 6c 99 3e
       -0.16149887 -0.14974423 0.56135935 0.2996565
000200 60 e3 0b be ee 8b 84 be 07 d6 8b bd 0b 32 f3 3e
       -0.13660955 -0.25888008 -0.06827932 0.47499117
000210 cb 3c 96 bd 4f 49 2f be b8 0d e0 3d 21 56 0c 3b
       -0.07335814 -0.17117809 0.10940117 0.0021413642
000220 e5 44 24 be de 10 28 3d 3e 10 41 3e be b3 a0 3d
       -0.16041906 0.04103171 0.18853852 0.07846783
000230 94 7a 1a 3e e2 cd 94 be f4 44 6e bd 6c 05 84 3e
       0.15085822 -0.29063326 -0.058171228 0.25785387
000240 12 64 ad bc 26 0c 93 bd ce c5 cc bd 58 60 37 3d
       -0.021165881 -0.071800515 -0.09998666 0.044769615
000250 29 83 cc bd 4f 87 0c 3e 95 fc f9 3d 59 76 6a be
       -0.09985954 0.13723491 0.12206379 -0.22896709
000260 ee e0 67 3c 93 52 80 be ed 52 81 bd c8 6d 7a 3e
       0.0141527485 -0.25063 -0.06314645 0.2445594
000270 66 67 47 be 78 93 40 be 11 1e 46 3e 40 98 cc be
       -0.19473037 -0.18806255 0.19347407 -0.39959908
000280 03 cf d5 be f5 e6 10 3f 64 39 65 be f7 fa 29 bf
       -0.417595 0.5660241 -0.22385174 -0.66398567
000290 56 73 26 bf ee 2b 70 3f fc a1 13 bd 61 b6 b5 3e
       -0.6501974 0.9381703 -0.036043152 0.35490707
0002a0 c3 2d c4 3b 6d cf 86 bd 39 c0 0a 3e bb b3 9e bd
       0.0059869005 -0.06582532 0.1354989 -0.077491246
0002b0 0b 0d e7 bd 7d 68 2d 3e 85 2c f4 bd 4a bc 59 be
       -0.112817846 0.1693439 -0.11922554 -0.21263233
0002c0 14 c5 e9 bd 5b fd c9 bd 8a a3 b6 bd 79 e5 cf 3d
       -0.11414543 -0.09862777 -0.08917911 0.1015119
0002d0 45 f1 38 be a4 49 11 3f b9 bb 76 be b9 75 0f 3e
       -0.18060787 0.5675299 -0.24095048 0.14009751
0002e0 dc 02 c7 3d 69 69 61 be ba b1 58 3e c9 ee 7d be
       0.09717342 -0.22012867 0.21161547 -0.2479812
0002f0 7e 1f fc bd f7 24 e2 bc 3b a0 04 be e3 2d bd 3e
       -0.12310694 -0.027605517 -0.12951748 0.3694907
000300 98 20 80 bd ef 97 ce 3e a7 88 52 3e 22 2b ae 3c
       -0.06256217 0.4035029 0.20559941 0.021260802
000310 8b 49 93 3d 8d 81 e0 3d 13 97 73 bd 88 f7 29 3d
       0.071917616 0.1096221 -0.059470247 0.04149583
000320 95 99 94 be 93 de ef 3c 6d cd 67 be eb 80 5d 3d
       -0.29023424 0.029280936 -0.22636957 0.054078024
000330 31 c0 fe bd 1b a2 f8 3e 13 aa 95 3c 65 00 92 bb
       -0.12439001 0.48561177 0.018269574 -0.0044556134
000340 8b 76 9e 3d cc 99 ac 3c 67 29 36 3e f5 96 d8 bc
       0.07737454 0.02106943 0.17789231 -0.02643917
000350 74 da bf be cc fd 4d 3c 0c 61 72 be f5 1c 01 3f
       -0.37471354 0.012572717 -0.23669833 0.5043481
000360 c0 68 0f be 67 85 a2 3e 39 1a 85 bd b9 77 00 3e
       -0.14004803 0.31742403 -0.06499142 0.1254567
000370 4f 0d fb bc f2 cd de 3d b9 af e7 3d 56 1d 3b 3d
       -0.030645994 0.10879125 0.11312813 0.045682274
000380 a6 27 16 3d 76 8a 9f be e8 5b 7e bd 7f 87 6d 3c
       0.036658905 -0.31160325 -0.062099367 0.014497637
000390 29 e9 78 3c dd 10 5c 3d 1c 9e a1 bc 89 d4 87 3d
       0.015192308 0.05372702 -0.019728713 0.06632335
0003a0 2e 08 2c be ca 98 2c 3e 5d 2f 84 3e f9 43 94 3d
       -0.16799995 0.1685516 0.25817385 0.07239527
0003b0 10 d0 77 be ed 2a da bd 60 fe 2b be ca d4 d6 bb
       -0.24200463 -0.10652719 -0.16796255 -0.006556128
0003c0 c0 5a 93 be 44 d6 29 be 24 b9 0e 3e 4d b4 8b be
       -0.28780174 -0.16585642 0.13937813 -0.27285996
0003d0 2d 75 7d be 8f b4 93 3e e4 db 31 be d3 a0 8a bf
       -0.2475173 0.28848693 -0.17369038 -1.083033
0003e0 e1 c6 0a bf fd 62 65 3f f5 ba dd bd c6 3f 0b 3f
       -0.54209715 0.8960417 -0.10826675 0.54394186
0003f0 fa 95 4a 3d 3b 48 16 3f 17 cf 66 bd 3e 7b 83 be
       0.049459435 0.58703965 -0.05634984 -0.25679964

patch_embed.in_conv.weight f4 [12, 3, 2, 2]
000000 ce 06 88 bf 48 85 64 bf f9 bc 7d bf a2 22 40 bf
       -1.0627077 -0.8926587 -0.99116474 -0.75052845
000010 fd db 5a bf 0a 28 34 bf 33 05 91 bf 01 b2 6a bf
       -0.85491925 -0.70373595 -1.1329712 -0.9167786
000020 89 3c 04 40 ce c3 0b 40 9d f6 05 40 31 30 11 40
       2.0661948 2.183826 2.093177 2.2685664
000030 17 c2 bc be 43 00 18 bf 98 9c f7 3c 05 9c 8f be
       -0.3686683 -0.593754 0.030226037 -0.2804872
000040 c0 7c 73 bf 62 43 9a bf f3 d0 2b bf 76 f4 8c bf
       -0.9511223 -1.2051814 -0.67115706 -1.1012104
000050 c8 9e 7c 3f 8d 6a 40 3f a3 7a b5 3f e3 e7 6d 3f
       0.9867978 0.75162584 1.4178051 0.92931956
000060 8d 8b 26 3d c0 c0 c8 3d 1f 83 10 bf 1c c7 0e bf
       0.04066043 0.09802389 -0.56450075 -0.55772567
000070 55 b3 21 be b4 1c d1 bd 76 be 0d bf 8e f6 25 bf
       -0.15791066 -0.10210553 -0.55368745 -0.6482934
000080 b4 84 38 3e f9 2d 80 3e 16 8a 3e be d8 a6 56 be
       0.18019372 0.25035074 -0.18607363 -0.20962083
000090 c2 e9 07 be d5 cb 33 3e 8d f8 d9 be c3 2d 49 be
       -0.13272765 0.17558224 -0.42572442 -0.19646363
0000a0 9f 97 8f 3a 66 04 c9 3e 69 1b b8 be 18 ce 42 bd
       0.0010955221 0.39261168 -0.35958412 -0.047559828
0000b0 57 94 b1 be 09 44 42 be 8a 33 e3 be aa 19 9a be
       -0.34683487 -0.18971266 -0.4437526 -0.30097705
0000c0 b2 e6 09 c0 89 ae 03 c0 94 e8 c7 bf 17 29 d9 bf
       -2.1547055 -2.0575278 -1.5617852 -1.6965665
0000d0 36 b0 14 40 2e f1 19 40 52 20 39 40 44 d1 36 40
       2.323255 2.4053454 2.8925977 2.8565226
0000e0 2d 1a 94 bf 93 e3 9b bf 6e 3e 53 bf af 1e 63 bf
       -1.1570488 -1.2178825 -0.82517135 -0.88718694
0000f0 ac 05 3f bf 16 a9 68 bf 30 11 9a bf d5 a0 97 bf
       -0.7461803 -0.90883005 -1.2036495 -1.1845957
000100 d0 2d 7d 3f 3c 90 70 3f 85 9f 7a 3f b9 d4 85 3f
       0.9889803 0.93970084 0.9789966 1.0455543
000110 53 51 34 bf dc 9b 34 bf 6e 41 26 bf 6d 5a 05 bf
       -0.7043659 -0.7055032 -0.6494359 -0.52091104
000120 31 0a 98 be c9 ee 9b be cb c9 1b be a7 eb 32 be
       -0.29695275 -0.30455616 -0.15213697 -0.17472707
000130 9d cb 2b bf ef e9 47 bf c2 e9 ef be 22 02 2f bf
       -0.67107564 -0.7809133 -0.4685803 -0.6836263
000140 b7 10 19 3f 32 16 0d 3f 62 21 1b 3f 99 19 10 3f
       0.5979113 0.5511199 0.60597813 0.5628906
000150 aa 64 87 bf b8 92 86 bf 3a 54 90 bf dc 1a a0 bf
       -1.0577595 -1.0513525 -1.1275704 -1.2508197
000160 aa 2a 35 3f 57 e0 4c 3f 8e c1 e1 3e 7c b4 ae 3e
       0.70768225 0.80029815 0.44092983 0.34122074
000170 66 c4 89 3f 4c a0 98 3f 4a b5 1d 3f 2c 25 0d 3f
       1.0763061 1.1923919 0.6160475 0.55134845
000180 b6 fb 56 3f eb 26 7b 3f 20 75 66 3f 65 2d 66 3f
       0.8397783 0.9810626 0.9002247 0.89913017
000190 3f 54 74 bf 7a e4 69 bf 83 56 55 bf fa fd 65 bf
       -0.9544105 -0.9136425 -0.8333513 -0.8984066
0001a0 af 91 77 bd ef e6 13 bd 00 58 3e 3d ed f6 be bc
       -0.06044167 -0.036108907 0.046470642 -0.023311103
0001b0 19 26 3a 3d 64 3c 5e 3e 34 41 5f 3e d9 46 e5 3e
       0.04544649 0.21702725 0.21802217 0.44780615
0001c0 61 b8 a0 bf 7f ac 8b bf 86 f9 ab bf fe 7e 87 bf
       -1.2556268 -1.0912017 -1.3435524 -1.058563
0001d0 31 6c 36 3f 12 32 84 3f d8 c8 42 3f 20 53 90 3f
       0.71258837 1.032778 0.76087713 1.1275368
0001e0 b9 d3 c1 3d 67 81 bd 3d eb 73 85 3e 3f 34 17 3e
       0.09464211 0.09253197 0.26065 0.14766024
0001f0 31 6a c6 bf 57 89 c0 bf d1 21 60 bf b8 4e 71 bf
       -1.5501157 -1.5041913 -0.875516 -0.9426074
000200 86 5e d1 be f3 3e d1 be c8 2f a0 3e f2 57 bf 3d
       -0.40892428 -0.4086834 0.31286454 0.09342946
000210 5e fc 91 bf ed 65 7d bf 9c 44 8c bf 51 44 84 bf
       -1.1405141 -0.9898365 -1.0958438 -1.0333349
000220 f1 63 8f 3e c3 67 cb 3e 98 2e 07 3f cd 52 20 3f
       0.28005937 0.397276 0.5280547 0.62626344
000230 82 2e f6 3e 98 e2 1f 3f f8 20 48 3f 02 d2 69 3f
       0.48082358 0.6245513 0.78175306 0.9133607

patch_embed.in_conv.bias f4 [12]
000000 46 d8 02 be 21 7c 98 3e 6b 79 3d 3f 87 84 03 3f
       -0.12777814 0.29782203 0.74013394 0.51374096
000010 a4 0f ab 3e b4 37 18 3f 16 5f 40 3f 9b 70 41 be
       0.3341037 0.59459996 0.7514509 -0.18890612
000020 c5 22 b7 3d 16 37 f7 3d 05 35 a6 3f 53 51 a7 3d
       0.08942179 0.12071054 1.298493 0.08169808

encoder_stack.0.msa.W_Q.weight f4 [12, 12]
000000 e0 ba 8f be 48 bf de 3d 49 27 7c bb 11 88 81 3e
       -0.28072262 0.10876328 -0.0038475564 0.25299123
000010 9b 46 f5 bd a5 da ec 3b 29 f5 62 3c 6a ab bf be
       -0.119763575 0.007228213 0.013852396 -0.37435466
000020 01 4a 1c be 08 87 00 3f b1 f5 9b 3e 75 c8 2f 3f
       -0.15262605 0.5020604 0.30460885 0.6866525
000030 74 6a 14 bf 3b c9 f7 3e 52 9b f6 3d c5 9d 2e 3e
       -0.57974935 0.48395714 0.12041344 0.17052372
000040 ce dc e8 3e 52 49 00 3f 98 5b 0e be 2d 35 73 3e
       0.4548096 0.5011188 -0.13902128 0.23750754
000050 b0 12 e0 be 28 67 6a bf ea b5 da be bd 2e 43 bf
       -0.43764257 -0.91563654 -0.42716914 -0.7624319
000060 cf 14 28 bf 7a 23 83 bd 78 81 a9 be 56 77 07 be
       -0.6565675 -0.06403251 -0.3310659 -0.13229117
000070 b8 8f d3 be 46 90 ef 3e 5e ff 58 3d 08 67 d8 bc
       -0.41320586 0.4678976 0.052977912 -0.026416317
000080 f8 96 f5 be 07 a7 0a bf 2b 55 86 be 2c 54 3b be
       -0.47966743 -0.54161114 -0.26236853 -0.18293828
000090 0d fb 54 3e 53 93 b5 be e0 56 4d be 7c 71 03 3e
       0.20798893 -0.35463962 -0.20052671 0.1283626
0000a0 d9 ad 23 3e c5 11 00 be 8f 1d 1f be 1d 78 ac be
       0.15984286 -0.12506779 -0.1553862 -0.3368539
0000b0 e2 b6 3d bd a6 55 54 3e 46 10 55 3e 3a df a0 3e
       -0.04631699 0.20735797 0.20806989 0.31420308
0000c0 65 22 00 3d 2e fd 5f 3e f7 89 fc bd d8 0a 86 bc
       0.0312828 0.21873924 -0.12331002 -0.016362593
0000d0 49 2a a4 3d e3 80 ac 3d 9a 93 c5 be a1 79 bf be
       0.08015878 0.08423021 -0.38589174 -0.37397483
0000e0 56 d3 0a 3d 33 b0 5a 3e ab d5 97 3e 5b 57 06 be
       0.033892952 0.21356277 0.29655203 -0.13119261
0000f0 54 4b 2a 3d 06 ce 17 bd 8c b9 d1 3c 16 9b 3f bd
       0.041575745 -0.037061714 0.025601171 -0.04677876
000100 c2 0a 16 3e 4c 64 92 3c 3b b5 b8 bd 59 d5 46 3d
       0.14652541 0.01787009 -0.09018942 0.048543308
000110 15 e6 c0 3b bc 75 d7 3c 65 5a e7 bd 02 d8 21 3d
       0.005886803 0.026301257 -0.11296538 0.03951264
000120 29 e6 29 3e 65 07 10 bd d2 4a 9e bd 53 8b 07 3a
       0.16591705 -0.035163302 -0.077291146 0.0005170602
000130 cb 14 97 b9 e2 b2 1d 3d df a7 4e 3c 7c ed 2c 3e
       -0.00028816456 0.038500674 0.012613266 0.16887468
000140 9d 3e 2b be d5 69 3d be 99 a1 37 be 02 bc 91 bc
       -0.16723104 -0.18497403 -0.17932738 -0.017789844
000150 96 b5 b1 3e 48 97 89 3e 9d 3b 7d be cf b0 0e bf
       0.34708852 0.2687323 -0.24729772 -0.5573854
000160 7c 34 04 bf c1 e7 d7 3e 94 aa 8a 3e dc f1 c2 be
       -0.51642585 0.42169002 0.27083266 -0.3807515
000170 42 94 2c bf 5a f6 d0 be c7 cc 87 bd c9 d9 d2 3e
       -0.67413723 -0.4081295 -0.06630855 0.41181782
000180 fd 0b 44 bd d4 bb 9c 3e 08 62 8a be 24 4d 19 be
       -0.047862995 0.3061205 -0.27027917 -0.14970833
000190 e9 40 77 be 70 91 1b 3e 0b de 6d bd 65 be a7 3e
       -0.24145855 0.15192199 -0.058073085 0.32762447
0001a0 66 17 cd bd 8b df 84 be 3b 03 ef be 0c e9 d9 bd
       -0.100142285 -0.259518 -0.46682152 -0.10640153
0001b0 64 3b bf 3d 6b 72 d6 3d fc b9 64 be 8b 38 60 bf
       0.093375 0.10471042 -0.22336572 -0.8758628
0001c0 64 be 13 bf b9 65 90 3e 60 a0 96 3e e6 e6 0d 3f
       -0.5771239 0.28202608 0.2941923 0.5543045
0001d0 ce f2 da be 10 c1 86 be 9a b1 0e 3e f5 0e c3 3e
       -0.4276337 -0.2631917 0.13934937 0.3809735
0001e0 d8 89 f3 3e 43 8b f7 be 65 9d 9e bc 75 49 28 3f
       0.47566104 -0.48348436 -0.019362161 0.65737087
0001f0 9d 09 30 3f ee 9f 34 be f3 6f 60 bd 0b fd d2 be
       0.6876467 -0.17639133 -0.054794263 -0.4120868
000200 d6 31 51 3e 63 6a fb bc 01 c2 d2 3e 95 f2 5a 3f
       0.20429167 -0.030690378 0.41163638 0.855264
000210 6d 23 94 be ed 82 8c be d7 4a 31 3a fb 9d a6 be
       -0.28933278 -0.27443638 0.0006763166 -0.32542405
000220 30 e8 1b bc a6 9d f8 be 1d 8b 69 be 76 72 28 bf
       -0.009515807 -0.48557776 -0.22806974 -0.65799654
000230 99 af d2 3c 06 c9 7b 3d 85 2c 00 be 6e c5 4d 3e
       0.025718497 0.061471008 -0.12516983 0.20094845

encoder_stack.0.msa.W_Q.bias f4 [12]
000000 ba a6 40 bf 7d 04 21 bf 3a 2f b6 be b9 7c 9f bf
       -0.75254405 -0.62897474 -0.35582906 -1.2459937
000010 78 53 e5 be fc 59 c2 3d 07 27 38 3d 5b ad c6 3e
       -0.44790244 0.094898194 0.044959094 0.38804135
000020 38 9d 9c 3e a7 ac b1 3e 3f b9 17 3f 63 32 e8 3e
       0.30588698 0.34702036 0.5926704 0.45350942

encoder_stack.0.msa.W_K.weight f4 [12, 12]
000000 5f d8 ad 3d c3 79 87 3d c1 f4 27 bf e0 dd a3 3e
       0.08488535 0.06615021 -0.6560784 0.32005215
000010 91 ba 07 3f ad 15 eb be c8 02 10 3f e2 bc 44 be
       0.5301905 -0.45914975 0.56254244 -0.19212678
000020 06 4f b6 3e b5 2b 6b bd 9d 37 a6 3e 11 da 78 bf
       0.35607165 -0.05741473 0.32464305 -0.9720774
000030 1a ef 0f bf 52 72 78 bf 14 7b 94 3c 19 84 18 3f
       -0.56224215 -0.9704944 0.018125094 0.59576565
000040 87 64 0f 3f 75 ba c9 3d 76 2d f2 3e 8a b7 c4 be
       0.5601277 0.09850017 0.4730031 -0.3842128
000050 ec ca 61 be 58 ae 1b bf e3 8d 25 3e d3 d1 ba be
       -0.22050065 -0.608129 0.16167407 -0.36488208
000060 c4 c2 b2 bd 66 bf 06 bf 7b b4 ca be 89 09 ad be
       -0.08728555 -0.526358 -0.3959082 -0.33796337
000070 a7 c6 24 bf f9 fc a0 bd 2d a1 a4 3e c5 3f 95 3e
       -0.6436562 -0.07860751 0.32154217 0.29150215
000080 cb 1b 4f bf f3 74 0c bf d7 3e 26 bf 98 a3 be 3e
       -0.80901784 -0.5486595 -0.64939636 0.37234187
000090 de ff 22 3e 71 f2 d5 3e cc 66 cc 3e 5b 44 54 bd
       0.15917918 0.4178653 0.39922178 -0.051823
0000a0 3e 1a 19 be 7a 8c c2 be 7f 92 d3 3d 28 95 0c 3f
       -0.14951417 -0.379978 0.10330676 0.54915094
0000b0 d5 d1 a0 bd 2a df da 3e 86 fe dd bf 88 98 8f be
       -0.07852522 0.42748386 -1.7343299 -0.2804606
0000c0 4c fc 70 3e e3 51 a7 3d 34 b4 93 bd 7c f2 73 3c
       0.23533744 0.081699155 -0.072121054 0.014889356
0000d0 82 45 64 be 94 1e b7 bd e9 7f 9b 3d 9c 4e cd 3d
       -0.2229214 -0.08941379 0.07592756 0.10024759
0000e0 a3 a8 52 be ba db e5 3d a5 11 57 3d 67 3e 10 3e
       -0.20572142 0.1122355 0.05250706 0.14086305
0000f0 ee 74 63 3b 2c 3a f0 3d dc 01 53 3d 7b 16 ac 3d
       0.0034707147 0.117298454 0.051515445 0.08402725
000100 9f bd 3b 3d ed 16 2d 3e 98 74 f7 bd 59 36 29 3e
       0.045835134 0.16903277 -0.12082785 0.16524638
000110 73 e0 9a 3d 16 a2 90 bd 18 4f 91 3d 3c 4e 1d 3d
       0.075623415 -0.070621654 0.07095164 0.03840469
000120 f2 18 e4 3a 75 a0 a9 3d 26 47 1d 3d 0b 0e 1f 3b
       0.0017402454 0.08282558 0.03839793 0.0024269845
000130 ed 98 d3 bd 94 5e bf ba 29 da dc 3d 45 3f e0 bd
       -0.10331903 -0.001460033 0.10783798 -0.10949568
000140 5a cf de 3d bd 72 d8 3d f8 9b 80 3e 00 f7 b2 bd
       0.10879393 0.105687596 0.25118995 -0.08738518
000150 6d e9 58 be f2 66 c7 bd e8 6b 44 be c8 6a 2f 3f
       -0.21182795 -0.09736432 -0.19181788 0.6852231
000160 bf 22 9a be cb c9 5d 3e 03 b5 d6 3e 60 da 89 be
       -0.30104634 0.21659009 0.41934976 -0.2692442
000170 b5 2c 05 3c 1c 76 de be a3 93 55 3f 54 3c 16 bf
       0.008128335 -0.43449485 0.834284 -0.58685803
000180 1a c8 e6 3d b2 7b 47 3e ad 73 bb 3d ae 85 16 3f
       0.11268635 0.1948078 0.09152923 0.5879773
000190 5c fb dd 3e 6c 2f 39 3f d9 d3 d5 bd ee 9c e9 3d
       0.43355834 0.72337985 -0.10440797 0.11406885
0001a0 c3 67 06 be 62 af 02 3f b2 fd 47 3e 39 e4 6b be
       -0.1312552 0.5104886 0.19530371 -0.23036279
0001b0 d1 c7 7f 3f c1 eb 01 bf 6a 74 10 bd 15 32 ac 3e
       0.9991427 -0.50750357 -0.03526727 0.3363196
0001c0 5c f2 18 be 78 f3 0c 3e bc 8e a4 3e 10 6e 2d 3f
       -0.14936203 0.13764751 0.32140148 0.6774607
0001d0 e6 de 2d 3f 6d 47 17 3f 45 23 74 bd 5f 50 90 3c
       0.6791824 0.5909336 -0.05960395 0.017616449
0001e0 46 0f cf be 4a 77 30 bf a0 85 31 3f f2 c9 c7 3d
       -0.4044134 -0.6893202 0.6934452 0.09755315
0001f0 5b 0a dd 3e 4e 8b bd 3d 3d ef 1d bf 68 82 9a 3e
       0.43171963 0.09255086 -0.61693174 0.30177617
000200 6f 78 2e be 9b f8 cc be 74 43 1e bf d7 48 2e 3f
       -0.1703813 -0.4003342 -0.61821675 0.68079895
000210 04 6c 30 be 30 c4 8a be 22 6d 40 be f4 2d 45 3f
       -0.17228705 -0.27102804 -0.18791631 0.77023244
000220 8a d9 f5 bd 8a 7b f1 3e f3 af 48 be 35 df 7e be
       -0.12004383 0.47164565 -0.1959837 -0.24889834
000230 ab 5d 34 3e 0d be 03 3f a0 a4 b0 be 3c d0 33 3d
       0.17613856 0.5146187 -0.345006 0.04389976

encoder_stack.0.msa.W_K.bias f4 [12]
000000 48 48 fa 3c ac d5 fa 3c f6 b0 15 3d 2c 65 0f bb
       0.030552045 0.030619465 0.036545716 -0.0021880371
000010 d2 74 b6 3c 42 1a e6 bb c3 3c 94 3b 67 6f 43 bc
       0.022272501 -0.007022173 0.004523845 -0.011928416
000020 08 b5 ba 3c 1a 31 1e 3c 8e 93 da bc 16 a9 7b 3c
       0.0227914 0.009655261 -0.026681688 0.015360137

encoder_stack.0.msa.W_V.weight f4 [12, 12]
000000 9d 93 4d bf 23 c0 66 be 30 66 61 3e a7 7a 1d 3e
       -0.80303365 -0.22534232 0.22011638 0.1537882
000010 75 f7 d2 bd 9e ab c6 3d 60 e9 49 be da dd 75 be
       -0.10301105 0.09700702 -0.19717932 -0.24010411
000020 bb 2c 9c bd 46 21 9d be 78 9b 4d 3c 3f 6c db be
       -0.07625719 -0.30689448 0.012549274 -0.42856023
000030 58 63 56 be 75 29 f0 be f0 69 67 bd 95 1a 11 3d
       -0.20936334 -0.4690663 -0.056497514 0.03542574
000040 cb cc 2b 3e e3 00 9e 3e ea 4f b0 be 50 0c 8e bd
       0.16777341 0.30860052 -0.3443597 -0.06935942
000050 6e 6a 34 3e 28 82 67 3d 6f 40 39 3f a3 ad e4 be
       0.17618725 0.05652061 0.7236394 -0.44663724
000060 9e 3d 81 bd 6d 02 16 3f 8f 39 27 bf 37 d3 43 3d
       -0.06310581 0.5859745 -0.653222 0.047808852
000070 74 62 ab be d4 10 2b be bd 54 37 3e 8f fc fa 3e
       -0.3347355 -0.16705638 0.17903419 0.49020812
000080 5c f2 b3 3d ce ef 40 3e 42 13 ae bd e5 0d e1 3e
       0.08786461 0.18841478 -0.08499767 0.43955913
000090 0f a9 9b 3f b2 9b ea be 10 d9 5f 3e a9 46 1f be
       1.2160968 -0.4582191 0.21860147 -0.15554298
0000a0 0b fc d1 be 11 96 20 3f a7 da ae 3d 73 a1 33 bf
       -0.41012606 0.62728983 0.085377984 -0.70168227
0000b0 78 f1 9e bd 31 0f 0b be ce c6 6b bf 31 9a 92 be
       -0.077609 -0.13580014 -0.92100227 -0.28633264
0000c0 97 3c 03 bf 60 b6 00 bf 2e 39 b2 be 98 ba 0e 3e
       -0.5126433 -0.5027828 -0.3480925 0.13938367
0000d0 bb e6 dd 3d a5 de a4 be 41 89 ee bd 45 cd 91 be
       0.10835024 -0.32201114 -0.11647273 -0.2847692
0000e0 e0 0c 7c 3e a5 f1 a1 bc b2 e2 6d be ab ec 39 be
       0.24614286 -0.019768545 -0.23231009 -0.18156688
0000f0 0d ff 37 3f b1 e7 1f 3f 9d 3a 07 bd 74 98 17 bf
       0.7187355 0.6246291 -0.033014882 -0.59217
000100 b3 4f b0 3d c7 04 51 be 82 10 ec be 5b 83 1a 3f
       0.086089514 -0.20411979 -0.46106344 0.6035668
000110 8d 85 b9 3c ed e7 0c 3c 53 a9 02 bf 41 8e 46 3f
       0.02264669 0.008600217 -0.5103962 0.7756081
000120 00 88 12 3f 7e eb 1c 3f f7 7c 87 3e a7 97 d2 3c
       0.5723877 0.6129683 0.26462528 0.02570708
000130 a0 fa b1 be 24 f4 21 bd 9f e9 bd 3e 9b 36 b0 3d
       -0.34761524 -0.03953947 0.370923 0.08604165
000140 77 03 c6 bd 5d a4 a3 3e 67 c5 8b 3e df 20 f6 3d
       -0.096686296 0.31961337 0.27299044 0.120179884
000150 4a 68 34 be c4 bc 12 bf fa 54 36 3e 9a 56 1f 3f
       -0.17617908 -0.57319283 0.17805853 0.6224152
000160 39 dc 6e be c2 8e 90 3d a8 ad 03 3c 7f a5 9d 3d
       -0.23326196 0.07058479 0.008037008 0.076975815
000170 56 9e b4 bb 25 c5 22 3f f0 b7 25 3e f3 28 1c bf
       -0.005512039 0.6358207 0.16183448 -0.60999984
000180 5b 49 af be 92 85 08 bd 12 64 1f 3e b7 8e 53 bb
       -0.34235653 -0.033330508 0.15565518 -0.003228111
000190 72 4e fb be 3c b6 21 be 80 72 f3 be 92 10 44 bf
       -0.49083287 -0.15792173 -0.47548294 -0.76587784
0001a0 89 e0 12 3f ef af 31 3f 80 95 47 3e 55 28 17 3c
       0.57373863 0.6940908 0.19490623 0.0092259245
0001b0 41 aa 35 3f 17 30 90 3f af 9d ea 3e 69 0b 77 be
       0.7096291 1.1264676 0.45823428 -0.24125446
0001c0 03 d1 b3 3c cc c7 fa bd 7a 16 08 bf 3a cb 95 be
       0.02195025 -0.122451395 -0.53159297 -0.29256612
0001d0 67 6e e0 3b 41 5c fd 3c 71 4c 90 be 10 59 53 3d
       0.0068490985 0.03092778 -0.2818332 0.05159861
0001e0 b5 a5 79 be f6 6e 9e be 8d 04 f8 bd 1b 62 1f bf
       -0.24379618 -0.3094403 -0.12110243 -0.6225907
0001f0 72 d4 8e 3e d6 2d ae 3e 44 0a ba be 70 98 43 be
       0.27896458 0.34019345 -0.36335957 -0.19101119
000200 2e 58 9e 3e 59 22 0c be d3 a3 e1 be 77 ac c0 3e
       0.3092665 -0.13684978 -0.440703 0.3763158
000210 7f 2d 23 3f b3 cc 97 3e 00 25 c1 3e cd a2 b2 bd
       0.63741297 0.2964836 0.3772354 -0.08722458
000220 d7 a6 05 3e e4 5d c7 3e b3 f6 ca 3e 27 2f 84 3e
       0.13051926 0.3893882 0.39641342 0.25817224
000230 2f 99 bd be 18 51 19 3d 61 51 e4 3e 05 40 ff 3d
       -0.37030932 0.037430853 0.44593337 0.12463383

encoder_stack.0.msa.W_V.bias f4 [12]
000000 1c 9a 22 3d 9b 7c e2 be b2 58 94 be 80 15 93 be
       0.03969775 -0.4423569 -0.2897392 -0.2872734
000010 53 3b 28 3f 9f 65 64 bf b4 7e fa 3e 5a 7e 70 be
       0.6571552 -0.8921756 0.48924792 -0.234857
000020 34 e9 07 3d 57 dc 49 be a1 d1 07 3f aa 76 01 3e
       0.033181384 -0.19712959 0.53054243 0.12642923

encoder_stack.0.msa.W_O.weight f4 [12, 12]
000000 cd 69 b9 be 42 72 77 3d 00 38 23 bf e2 6e 2e bf
       -0.36213532 0.0604117 -0.63757324 -0.68137944
000010 6c 7e 2e bf 37 ae 80 3e 81 56 97 3e 96 71 fc 3e
       -0.68161654 0.25132915 0.29558185 0.4930541
000020 1c 2d 01 bf 26 cf ed be e9 4b 8a bd 13 b3 ea be
       -0.50459456 -0.46447104 -0.0675276 -0.45839748
000030 10 bf 8a bc ee c2 92 3e 6e 38 6a be 8b e9 0f 3f
       -0.016936809 0.28664345 -0.22873089 0.56215733
000040 80 5b 31 3d d1 13 6f be 86 ab 2c bf 3c 02 9c bd
       0.04330015 -0.23347403 -0.67449224 -0.07617614
000050 79 00 66 3c bd 7d 1f bf 12 94 5d bf b9 91 f3 be
       0.014038199 -0.62301236 -0.8655406 -0.47572115
000060 f4 69 03 bf d2 42 68 bf e2 b2 a7 be 6d 1d 65 be
       -0.51333547 -0.9072696 -0.32753664 -0.22374506
000070 9e 11 56 3f cc ce a4 3e fc 00 c9 bd 52 7e e8 be
       0.8362063 0.32189023 -0.09814641 -0.45408875
000080 45 9f 68 3e a0 ff ed be da 6d 7c 3f 7b b8 19 bf
       0.22717007 -0.4648409 0.9860512 -0.6004712
000090 ca ea aa 3e c3 02 a8 3e 7d f0 73 3e de 1c c1 be
       0.33382255 0.32814607 0.23822208 -0.37717336
0000a0 8d 06 00 bf f6 8a 0b 3f 64 0f 18 3e f7 d6 76 be
       -0.50009996 0.5450891 0.14849621 -0.2410544
0000b0 04 7e 5f 3f 1d 0d 28 3d ca cb 9c 3e 1b 9a 1e 3f
       0.8730166 0.04102813 0.3062423 0.61953896
0000c0 31 89 63 bc 66 34 ef bc be 3e d4 3e eb 42 5d 3e
       -0.013887689 -0.02919979 0.41454118 0.21607558
0000d0 c5 53 94 be a3 c3 43 be 2d f9 2b be 8b d1 b2 be
       -0.2897016 -0.19117598 -0.16794272 -0.34925494
0000e0 1a cf e1 be a0 ee 40 be 3c ac 89 3e f1 63 8e be
       -0.44103318 -0.18841028 0.26889217 -0.27810624
0000f0 91 79 da bd ce bb c7 bd e0 96 6d be dd e1 45 bb
       -0.10667718 -0.09752618 -0.23202085 -0.003019444
000100 07 da 03 3f 86 b0 86 3e 20 ef 9d be 51 9c 63 3d
       0.5150456 0.26306552 -0.308465 0.055568997
000110 b5 93 21 3d f3 15 c3 3d 53 0c b6 3e 1f 5f aa 3d
       0.039447505 0.09525671 0.35556278 0.08318924
000120 92 d7 52 bd 28 5b 95 3f c5 27 cb 3e 77 6e 79 3e
       -0.051475115 1.1668444 0.3967878 0.24358545
000130 58 66 4c bc 8d da 7a 3f 6f 16 0d 3f 8a da 38 3f
       -0.0124755725 0.9798973 0.55112356 0.72208464
000140 a1 d1 f5 be 5d 41 63 be 1e 5c 05 bf 16 d8 b4 3d
       -0.48011497 -0.22192903 -0.52093685 0.088302776
000150 2d 75 1e bf d0 5f db be 8d a6 7f be 35 1e 43 3f
       -0.61897546 -0.42846537 -0.24965878 0.7621797
000160 d2 32 4a 3e 00 4d 74 bf 5b 81 c0 3e 13 75 11 bf
       0.19745949 -0.9542999 0.3759869 -0.56819266
000170 d7 1d 52 3e 74 c6 3e 3f c6 6a 4f be 06 86 23 3e
       0.20519195 0.74521565 -0.20255575 0.15969095
000180 52 87 34 3e c1 e6 c3 3d be 00 92 3d 6e e3 2b bf
       0.17629746 0.09565497 0.07129048 -0.67143905
000190 1d 00 f5 3d 7c 9f 05 bf 90 9e a0 3e 79 5f c7 3d
       0.11962912 -0.5219648 0.31370974 0.09735007
0001a0 16 09 c1 be e4 5c 48 3d 08 c5 a6 be ae 28 3d 3f
       -0.37702245 0.048916712 -0.32572198 0.738902
0001b0 8b 60 1a 3e 59 5f 82 3d 95 97 d3 3d 59 f5 3e 3e
       0.1507589 0.06365842 0.10331646 0.1864828
0001c0 2a 20 0c bf 45 0f 87 3c ed 2c 01 bf 73 a0 a6 be
       -0.5473658 0.016486773 -0.50459176 -0.32544288
0001d0 26 32 8a 3d ce 91 ab 3e 90 3a bc be b5 82 b3 3e
       0.06747846 0.33509678 -0.3676343 0.3506066
0001e0 ba 7d 2a 3f 5f 8c 54 bf 78 f0 16 3e 5e b2 8c 3e
       0.66598094 -0.8302669 0.14740169 0.27479833
0001f0 5e aa a5 3e 48 12 ce 3d ed 9b 73 3c 2d 6c a9 3d
       0.32356542 0.100620806 0.014868719 0.08272586
000200 47 6c ec 3e 3a 1f 18 3f c8 ef 93 3e 9a 6e 3c be
       0.4617636 0.5942265 0.28893876 -0.18401566
000210 1b a4 bf 3e 7b 07 86 3e e2 93 78 3e 5e fb cb be
       0.3742989 0.26177582 0.24275163 -0.39840215
000220 ec 4a 4f 3d 54 f9 20 bf 86 ed a0 3d 89 de d7 3e
       0.05060856 -0.62880445 0.07857804 0.42161968
000230 66 12 3c bd 24 95 dc 3c 48 ba b6 3d 90 53 d3 39
       -0.045915984 0.026926585 0.08922249 0.00040307315

encoder_stack.0.msa.W_O.bias f4 [12]
000000 c3 a3 7a be d7 c7 84 be 26 7c 39 3f 46 92 c4 bd
       -0.24476533 -0.25933716 0.7245506 -0.09598212
000010 85 09 d7 be 5d 52 f0 3c ea 7b d8 bc d2 21 84 3e
       -0.4199945 0.029336149 -0.026426274 0.25807053
000020 af 1c 0d 3f b7 18 63 bf a9 8b 70 3d 25 4d 76 3e
       0.5512189 -0.88709587 0.05872694 0.24052866

encoder_stack.0.ffn.l_1.weight f4 [12, 12]
000000 d0 a3 db be 2c 5f 1a bf 3e 25 04 bd d4 6e 5a 3e
       -0.42898417 -0.6030147 -0.03226208 0.2133134
000010 6a 84 41 3f 52 4d 45 3e 57 ca 44 bf 68 a8 a8 3e
       0.7559267 0.19267777 -0.76871246 0.32940984
000020 d8 5f 34 3e 33 14 a7 be 31 09 cc be 91 75 47 be
       0.17614686 -0.32632598 -0.39850762 -0.19478442
000030 20 0c ec bc 8a fa 1e 3e 5a 6e ee 3e 0b 0a ff be
       -0.028814375 0.1552526 0.46568567 -0.4981235
000040 3f ff e1 3d 6e 01 7e be cb 0c a0 be 21 ef 1b bf
       0.110350125 -0.24805233 -0.3125976 -0.60911757
000050 50 70 f4 be c0 02 a9 be d6 2e de 3e 71 a6 8e be
       -0.47741938 -0.3300991 0.43395108 -0.2786136
000060 d6 95 79 bf 5e 6c 04 bf 75 dd 26 3e 14 7f 32 be
       -0.97494256 -0.51727855 0.16295417 -0.17431289
000070 84 fc 04 3f 76 7d 98 3e 92 b5 b2 3e e3 00 1b be
       0.5194781 0.2978322 0.34904152 -0.15137057
000080 c5 67 60 bf 0f c0 ef be ef 7d 83 3e 25 ac 66 be
       -0.8765834 -0.46826217 0.25682017 -0.22526605
000090 8a cc 9c 3e 13 40 c3 be 16 9d 8a 3d 81 f1 f9 be
       0.306248 -0.38134822 0.06768243 -0.48817065
0000a0 ee 18 f5 3d 70 23 02 bf 96 43 6d bd 78 ec 3e bf
       0.119676456 -0.50835323 -0.057925783 -0.7457957
0000b0 19 2d 8e 3e 28 41 18 3f 7c 2e 86 be 72 32 1c be
       0.27768782 0.5947442 -0.2620734 -0.15253618
0000c0 04 26 41 bf f8 4d 23 bf 35 0b e1 3d 47 29 15 bf
       -0.7544863 -0.63790846 0.10988466 -0.5826611
0000d0 69 c8 47 bf 44 2f 07 be d3 74 8b bd 0a 5f e2 be
       -0.78040177 -0.13201624 -0.06809392 -0.44213134
0000e0 c3 93 80 3d 7d 6b 0e bf a6 6f 7d 3d 00 b4 ff be
       0.06278183 -0.55632764 0.061874054 -0.49942017
0000f0 b8 62 68 3f 97 5c 97 be 1d a0 11 3e 45 7a 22 3e
       0.9077563 -0.29562828 0.14221235 0.15866955
000100 55 9c 11 3f a3 9b 1a be c3 fd 2d bc 16 90 55 3e
       0.5687917 -0.15098433 -0.010619584 0.20855746
000110 68 41 d2 bd 3e 11 31 3e c1 57 a7 3e 08 10 1f 3f
       -0.102663815 0.17291734 0.32684138 0.62133837
000120 ec a3 ad 3e 16 b2 1e 3f cc 6f d4 3e c6 b6 07 3f
       0.33914125 0.6199049 0.41491544 0.53013265
000130 6b 71 4e be 1d 38 46 3e e5 7a e0 3e 4d 21 c9 3e
       -0.20160453 0.19357343 0.4384376 0.3928322
000140 03 e0 09 bf 8a ae d1 3e 00 c9 39 bf 26 fe 9f bc
       -0.5385744 0.40953475 -0.72572327 -0.019530367
000150 86 e0 bc be b9 e1 74 be 76 08 72 3d a0 9d be 3e
       -0.36890048 -0.23914231 0.0590901 0.37229633
000160 63 88 7b bf fb 5c 46 bf 44 a3 5f be ca 53 22 bf
       -0.98254985 -0.77485627 -0.21839625 -0.634091
000170 5c 37 16 3f d8 15 10 3f 90 f8 9e 3d 6f 8d 16 bf
       0.5867822 0.5628333 0.07762253 -0.5880956
000180 cf 70 e6 be 0e 59 30 bc 98 85 ae bd 5c fb 0c 3f
       -0.4500794 -0.01076342 -0.08521575 0.55071044
000190 0d b4 13 3f 46 ac d9 3d c2 96 32 be 3e 21 c6 be
       0.5769661 0.10628562 -0.17440322 -0.38697237
0001a0 07 50 9b 3e 94 f4 76 be e4 41 19 bf b4 7a 52 be
       0.30334494 -0.24116737 -0.59866166 -0.2055462
0001b0 e1 41 61 be 0a 16 9d 3e 74 73 3e 3f 9e d7 a7 3e
       -0.21997787 0.30680877 0.7439492 0.3278169
0001c0 8f fa bf 3e 20 77 b8 3d 4b 97 44 3f 6a e9 12 bf
       0.3749585 0.09007096 0.76793355 -0.5738741
0001d0 d6 31 16 3e a0 55 60 3e 51 18 25 3e d8 58 bd 3e
       0.14667448 0.21907663 0.16122557 0.36981845
0001e0 59 63 c4 3e 39 82 6b 3e ab f4 ab bd 90 ad d5 bd
       0.38357046 0.22998895 -0.08396276 -0.10433495
0001f0 f7 71 ba bf de d9 03 bf 8c 86 9d 3d 90 00 34 bf
       -1.4566029 -0.51504314 0.076916784 -0.7031336
000200 c1 a4 ed 3d 29 20 08 3f 5b 25 47 3f 03 4a a0 be
       0.1160369 0.5317407 0.77791375 -0.31306466
000210 9b fa db 3e dd 60 76 3f 04 4f ec bd c7 70 71 3e
       0.42964634 0.9624155 -0.115385085 0.23578177
000220 14 57 04 bf 52 8d 66 bf 10 0c 22 be f0 2b 9e bd
       -0.5169537 -0.9005939 -0.15824914 -0.07723224
000230 b9 59 3e 3f 68 9c 9e bc 1d b6 4f bf 48 16 08 3f
       0.74355656 -0.01936169 -0.8113726 0.53159

encoder_stack.0.ffn.l_1.bias f4 [12]
000000 ba 4b ec 3e 36 1d 25 bd 67 09 d1 be 39 cb 71 3e
       0.46151525 -0.04031106 -0.40827486 0.2361268
000010 3a 1d 97 bd 71 09 95 bd 3c bc 46 be da cb f1 3d
       -0.073786214 -0.072771914 -0.19407743 0.1180646
000020 60 91 cc 3d d3 7e bc 3d 75 5e c7 3e cb 71 07 bf
       0.099886656 0.09203877 0.38939252 -0.5290801

encoder_stack.0.ffn.l_2.weight f4 [12, 12]
000000 bb 06 c3 be 49 45 98 bc 11 bb d4 3e 21 f2 8d 3e
       -0.38091072 -0.018587725 0.4154897 0.27723792
000010 ce 76 67 3e f3 48 46 3f 48 6d cd bd 33 c3 8a be
       0.22603914 0.7745506 -0.10030609 -0.2710205
000020 23 27 7d bd c5 7e 88 be 12 fd 30 3e e4 ee 1f 3f
       -0.0618049 -0.26659217 0.17284039 0.62473893
000030 59 0d 16 3d 35 cb 2d bf ef 40 f1 be 4e 86 18 bf
       0.036633823 -0.67888194 -0.47119853 -0.5957993
000040 12 72 ac bf a7 ce f5 3e e2 77 79 bf b3 91 22 bf
       -1.3472311 0.48009226 -0.9744855 -0.6350357
000050 58 29 0f bd 4b 62 55 bf 46 1c 35 bf f1 f3 87 bf
       -0.034951538 -0.8335311 -0.70746267 -1.062132
000060 65 8b ee be 31 b8 c3 3e dd c1 0d 3f 61 6d f1 3d
       -0.46590725 0.38226464 0.55373937 0.117884405
000070 b1 ee 15 be 70 44 1b be a0 86 da 3e d4 89 2f be
       -0.14641835 -0.15162826 0.42680836 -0.17142421
000080 c3 97 ff be b9 f1 51 3f ab b8 75 3e 71 8c 17 3f
       -0.49920473 0.82009465 0.23996226 0.5919867
000090 ab 03 3d 3e 3d 0b bc be 58 98 87 be fe ce 3b bf
       0.1845843 -0.36727324 -0.26483417 -0.7336272
0000a0 ed c7 1c be 02 32 97 be 02 fe c0 3e a3 e1 63 3e
       -0.1531064 -0.2953034 0.37693793 0.22254042
0000b0 35 37 84 3e de c7 26 3f 94 a1 90 bd 67 c2 4f 3d
       0.2582337 0.65148723 -0.070620686 0.050722506
0000c0 4f 5f 38 3f d3 b7 bf 3e 0a 4a 27 3e 37 0d bd 3e
       0.7202043 0.37444934 0.16336837 0.36924145
0000d0 b0 0b a2 3e 0e 7b 4a 3d 62 c2 85 be 26 c9 9d bd
       0.31649542 0.04943376 -0.26124865 -0.07704382
0000e0 84 fb 7b 3e 24 2f 02 be 92 5d f5 be d9 65 03 3f
       0.24607664 -0.12713295 -0.4792295 0.5132728
0000f0 d7 ee bf 3e 5f 90 d3 3c 38 78 22 bf ef 08 0b 3f
       0.37486908 0.025825677 -0.6346469 0.54310507
000100 9f cc f7 3d e1 1a 73 3e db ef f4 3d 52 7a 1e bd
       0.12099575 0.23740722 0.11959811 -0.038690872
000110 c9 00 11 3f 45 40 59 3e 9c 01 23 3d 65 6b b0 be
       0.56641823 0.21215923 0.039796457 -0.34456936
000120 01 6b a4 3e 3d b7 42 be 43 09 05 3f e3 7a d6 be
       0.32112888 -0.19015212 0.5196726 -0.4189063
000130 e3 f0 5a 3f db 67 9a 3d 0c 55 37 3f 89 86 e1 be
       0.85523814 0.0753934 0.71614146 -0.44047955
000140 23 5c 8f 3e 35 7e 1a 3e 4f 3a d7 be 43 1c 44 3e
       0.27999982 0.15087207 -0.42036673 0.19151406
000150 77 8f 41 be 6e 8e 37 3e 70 ed 3e 3e 6d 4b 46 3e
       -0.18902384 0.17925426 0.18645263 0.1936471
000160 53 8d 00 be ab 0f bd be 24 76 4e be 27 01 84 3e
       -0.12553911 -0.36926016 -0.20162255 0.2578213
000170 bd fb e3 bd c2 46 a9 3d a9 f7 f5 3d a2 0b f0 3e
       -0.11132 0.08265449 0.12010128 0.46883875
000180 00 9c b3 be 3e d4 aa 3e 7d 34 c4 3e 41 cd d3 3e
       -0.35079956 0.33365053 0.38321295 0.41367534
000190 ac f9 98 3e df 2b 04 bf c0 2f 9e 3e 26 d6 84 3f
       0.29877985 -0.5162944 0.30895805 1.0377853
0001a0 5a c7 32 3e af da 6f 3e 89 b0 38 3f 04 f6 06 3f
       0.17458859 0.23423265 0.7214437 0.5271914
0001b0 36 b6 61 be eb 5d c0 be 86 08 19 bf a0 a4 a5 3e
       -0.22042164 -0.37571654 -0.5977863 0.3235216
0001c0 37 89 fe be 05 65 ce be 7f d6 39 3d 18 ad 9e 3b
       -0.49714062 -0.40311447 0.045370575 0.0048424117
0001d0 9a 38 9e be 2b 37 9e be 88 1e 08 bf 83 74 83 bf
       -0.3090256 -0.30901465 -0.53171587 -1.0269932
0001e0 26 18 66 be c5 99 35 3e 44 2e 10 bf a6 03 60 bc
       -0.2247015 0.1773444 -0.56320596 -0.013672745
0001f0 44 85 44 3e 48 69 09 3e 7f d8 1f 3e 1a 7b 86 3e
       0.19191462 0.13419068 0.1560993 0.26265794
000200 bd 62 08 bf d1 19 f4 be 83 94 44 3f 6f 76 93 be
       -0.5327566 -0.47675946 0.7678911 -0.28801295
000210 89 0b 29 3e 45 a0 16 3e 01 03 8b 3e 72 1e 00 bf
       0.16508307 0.14709575 0.2715073 -0.50046456
000220 83 0c ce 3e 00 3a 7f bd 94 23 ff be f6 cf da bd
       0.4024392 -0.062311172 -0.4983183 -0.10684197
000230 32 b7 17 3e a9 70 d4 bc 0b af c4 3d 69 47 5f be
       0.14815977 -0.025932627 0.09603699 -0.21804585

encoder_stack.0.ffn.l_2.bias f4 [12]
000000 99 2e f9 3e 38 b4 59 bf c7 bc bc be 48 53 38 be
       0.48668364 -0.85040617 -0.36862776 -0.1800052
000010 96 b5 37 3e e0 11 7c 3f 5c 5d 72 be 93 be 29 3f
       0.17940363 0.98464775 -0.23668426 0.6630642
000020 9a 2f d7 be 57 59 4b bf f7 98 9a 3e d1 19 0f 3e
       -0.42028505 -0.79433197 0.30194828 0.13974692

encoder_stack.0.l_norm_1.weight f4 [12]
000000 95 c5 f8 3e 7a cb 2c 3f a1 5b 85 3e 86 c0 07 3f
       0.48588243 0.6749798 0.2604647 0.5302814
000010 03 72 16 3e aa 85 b9 bd 6f b0 3c 3f dc 1e 06 3f
       0.1469193 -0.090586975 0.73706716 0.5239084
000020 a2 6c 3f 3f c7 b5 33 3e 88 af f3 3e c4 5f 20 3f
       0.74775136 0.17549811 0.47594857 0.62646127

encoder_stack.0.l_norm_1.bias f4 [12]
000000 c8 c4 41 bd dd ee c5 3e ab 0f 24 bd 5e 1b ed 3e
       -0.047306806 0.386588 -0.040054005 0.46309942
000010 77 ff fb bd 2c d9 7a 3d 08 d0 06 3f c3 77 c6 be
       -0.123045854 0.061242267 0.5266118 -0.38763246
000020 20 2f b5 3c fb 25 ad 3e c6 1b ae bc 78 52 2e 3c
       0.022117198 0.3381804 -0.021253478 0.010639779

encoder_stack.0.l_norm_2.weight f4 [12]
000000 c8 6d 10 3f 6d 99 8c 3e c9 5d 25 3f fe e5 00 3f
       0.5641751 0.27460805 0.6459623 0.5035094
000010 ef b7 1d 3f 8c 99 1b 3f e6 65 2d 3f f6 b7 12 3f
       0.61608785 0.6078117 0.6773361 0.5731195
000020 2d 82 0c 3f 8e c7 b7 3e 42 7d f4 3e aa 92 b8 3e
       0.5488613 0.35894436 0.47751814 0.36049396

encoder_stack.0.l_norm_2.bias f4 [12]
000000 d2 7f 76 3e 3e d1 1a 3f 6a 3e c9 3e 1d 23 cc 3e
       0.24072197 0.6047553 0.3930543 0.3987054
000010 e9 a8 36 bd 33 ed 1b be 3f 39 1b 3e b3 37 23 be
       -0.04459468 -0.15227203 0.15158556 -0.15939216
000020 5f 54 fe be fc db ae 3e 14 d8 ad be 36 68 c7 3e
       -0.49673745 0.3415221 -0.33953917 0.38946694

encoder_stack.1.msa.W_Q.weight f4 [12, 12]
000000 7f bf 60 3e d1 ba df be fc a8 8c 3c 2f 6e 44 be
       0.2194805 -0.43697217 0.017170422 -0.19182657
000010 fc 0c 02 3e 0f 3d 32 bf 94 d7 dd be cf 28 20 3d
       0.12700266 -0.6962442 -0.43328536 0.039101418
000020 9d d1 81 3e 9a f8 06 be 98 aa 1a bf 3b 86 98 be
       0.25355235 -0.13180771 -0.60416555 -0.2978991
000030 d7 38 a8 3e ff e6 31 be 47 91 00 3f 9c 06 10 3e
       0.32855865 -0.17373274 0.50221676 0.14065021
000040 83 c8 45 3f 04 c8 16 bf 76 ff cb bd 00 1c 91 be
       0.7725908 -0.5889895 -0.09960835 -0.28341675
000050 00 1d 07 3f e2 41 15 3f 7d 5b 53 be 96 d5 ba be
       0.52778625 0.58303654 -0.20640369 -0.36491078
000060 b7 c3 56 be 73 a0 80 be 4c ab c1 bd d4 ad 4e 3e
       -0.20973097 -0.25122413 -0.094565004 0.20183498
000070 21 e2 49 3f 5a 82 ee be 3a 80 8f 3d 37 de 6b be
       0.7886067 -0.46583825 0.07006879 -0.23033987
000080 81 66 62 3e 1b a6 7d 3e ed e4 4c 3e 38 ea b5 bd
       0.22109415 0.24770395 0.20009203 -0.08882564
000090 84 bc d1 be c8 ed a1 3e dd 65 6a 3e 30 f8 38 3e
       -0.40964139 0.31626725 0.2289042 0.18063426
0000a0 ef 2b 00 3d f5 c6 b9 be c7 a7 53 3d 70 3b 65 3f
       0.0312919 -0.36284605 0.051673677 0.8954382
0000b0 0a a5 e3 bd f9 4a d9 3e 89 09 f5 be d0 73 18 be
       -0.11115463 0.42440012 -0.47858837 -0.14887929
0000c0 af 4e d1 be 9b 19 05 3e dc 35 8b be 65 90 0f 3d
       -0.40880343 0.12998049 -0.2718953 0.035049815
0000d0 c7 2a 9d be fa a5 43 3f 3d 59 56 3e b4 7b f6 bd
       -0.306967 0.76425135 0.20932479 -0.12035313
0000e0 fd 42 57 3d 18 bd fe be a3 6f a0 3e 9d 38 28 bf
       0.05255412 -0.49753642 0.31335172 -0.65711385
0000f0 b8 e8 4c be 42 f0 5c be 58 d9 3a bf 83 02 3d 3d
       -0.2001065 -0.21576026 -0.7298789 0.046144973
000100 3f 59 01 3f 3a ba 1d be 63 b6 b0 be d8 ea bd bd
       0.50526804 -0.15403071 -0.3451415 -0.092733085
000110 14 50 2c be 82 ec 34 3e ab 2f 80 be e1 51 a9 be
       -0.16827422 0.17668346 -0.25036368 -0.3307028
000120 e8 f6 de 3e 4a da 70 3e c8 d5 05 be 5c 17 3a be
       0.4354775 0.2352077 -0.13069832 -0.18172973
000130 e4 f1 38 bc 13 dc 00 bf 1c 3b 8f be 77 8a ce 3c
       -0.01128814 -0.50335807 -0.27974784 0.02521251
000140 39 78 9c 3d 36 02 ff bd c4 cc 07 bf 22 e1 84 3e
       0.07640118 -0.124515936 -0.5304682 0.25953013
000150 ac 98 08 3f f8 70 39 3d 5c 30 20 3e a8 23 51 3e
       0.5335796 0.04527375 0.15643448 0.20423758
000160 76 c7 6e 3e 28 ce 0c bf b3 e2 0b 3f 6f 49 2d bf
       0.23318276 -0.5500207 0.5464279 -0.67690176
000170 3f ec 06 be 3b 2e 02 bd 84 35 af be 00 6e bd 3b
       -0.13176058 -0.03178237 -0.34220517 0.0057809353
000180 fc aa 48 be 72 a5 1a be 2d aa cd bd 17 8a 07 bd
       -0.19596475 -0.15102175 -0.10042224 -0.033090677
000190 96 42 2e 3e ad 33 5d 3f 29 3e 4f bd 44 05 bb 3c
       0.17017588 0.86406976 -0.05059639 0.02282966
0001a0 19 c7 20 bf bb 2f 9b be 91 b5 f7 be 56 98 4b 3e
       -0.628038 -0.30309853 -0.48380712 0.1988233
0001b0 46 82 ed bd 34 59 0f 3f 28 d8 85 be 71 a0 d2 3d
       -0.11597113 0.5599549 -0.26141477 0.10284508
0001c0 d9 06 74 be 08 b9 f3 3e 87 39 85 be 71 d9 08 3f
       -0.23830737 0.47602105 -0.26020452 0.5345679
0001d0 96 14 9b bd 4c 1e 5d bc 33 fa 78 3e d7 9a b0 be
       -0.07572286 -0.013495993 0.24314193 -0.34493133
0001e0 1a 88 48 3e 30 2c 9d 3d 8a 81 d9 3e ca 81 80 3e
       0.19583169 0.07674444 0.42481643 0.2509902
0001f0 b3 24 9d bc 78 4a 9f 3e a1 ab 06 3e 8e 67 c4 3d
       -0.019182539 0.31111503 0.13151409 0.09590064
000200 82 b2 74 3b 5a f6 e8 3d fd 30 89 3e 95 a5 2f 3e
       0.0037337844 0.11375113 0.26795188 0.17153008
000210 6e 8d 3c bd bd 1e 3a be 03 3a 54 be 08 d5 f8 bd
       -0.046033315 -0.18175788 -0.20725255 -0.121500075
000220 60 ff 6e be eb 58 97 be 9d 1e 57 3e 9c 77 7e be
       -0.23339605 -0.29560027 0.21007772 -0.24850315
000230 19 ba 27 3e 19 f8 aa 3e f3 ad cf 3e 5e 2c 57 bd
       0.16379584 0.33392408 0.405624 -0.052532546

encoder_stack.1.msa.W_Q.bias f4 [12]
000000 1e 13 c1 3e 0e 9e e2 bd 55 a6 1c be f6 ca 97 3e
       0.37709898 -0.11065303 -0.15297826 0.29647034
000010 1e 65 82 bd ab 49 fa be a9 4b 40 3e f3 b9 bb 3e
       -0.06366943 -0.4888433 0.18778862 0.36665305
000020 5c 36 18 3f 79 34 93 be 74 e5 30 3f 2f 17 28 bf
       0.59457946 -0.2875097 0.6910012 -0.65660375

encoder_stack.1.msa.W_K.weight f4 [12, 12]
000000 2b d4 37 3e f0 b3 c0 bd 78 f8 f0 be e1 7a 89 bf
       0.1795203 -0.0940932 -0.47064567 -1.0740625
000010 82 fc 6c be e3 eb 45 3d 88 2b 03 3e d1 cc a3 be
       -0.23143199 0.048320662 0.12809575 -0.319922
000020 68 e2 cd 3d 43 81 af be 13 b1 bc bd 94 9f 75 3e
       0.10052949 -0.34278306 -0.09213462 0.23986655
000030 29 a3 7e bc 68 51 5c be bd 1d 13 3f 82 25 e2 be
       -0.01554183 -0.21515429 0.5746725 -0.4416924
000040 2c c4 38 bf 59 4b 45 bf 1e 2a 8b bc 96 ae 7a be
       -0.72174335 -0.77068096 -0.016987856 -0.24480662
000050 0e 07 be 3e bd b3 90 3c 0a 97 2e 3f 74 02 d5 bd
       0.37114757 0.01766383 0.6819922 -0.104008585
000060 cb 98 84 bf de 1f db 3e 88 ad b1 3e df d9 1e 3f
       -1.0359129 0.4279775 0.34702706 0.62051195
000070 dd 6f b3 bd a4 42 e1 bd b5 e5 50 3e 8e 57 83 be
       -0.087615706 -0.10999039 0.20400126 -0.25652736
000080 c6 79 d9 3e fb 02 2e be 0a ed d9 be 77 5b 42 3f
       0.42475718 -0.16993324 -0.4256366 0.75920814
000090 3e 3d 99 3e 9c 0b 6c be 70 90 a2 be b7 31 a9 bd
       0.29929537 -0.23051304 -0.31750822 -0.082614355
0000a0 ce 42 42 3c e7 47 d7 3e 97 11 4b bf f3 1e 64 3e
       0.011856748 0.42047045 -0.79323715 0.22277431
0000b0 90 77 c3 3d 67 4d 18 3f ae bd bc 3d 3d 98 33 bf
       0.09544289 0.59493107 0.09215866 -0.7015417
0000c0 b3 da 59 bf 38 db cb be ac cc c6 bb ec 76 4b bf
       -0.85099334 -0.39815688 -0.0060668793 -0.79478335
0000d0 3b d0 60 3e 69 67 3b bf c5 c4 90 3f 6b b9 a0 3e
       0.21954434 -0.73204666 1.1310049 0.31391463
0000e0 91 46 1f be 82 5a a0 be 1d 8a 4a be 2c cb 78 3e
       -0.15554263 -0.31319052 -0.19779249 0.24296254
0000f0 45 89 f4 3e fe 1c 16 3f 0f a6 3d 3f cf af 57 3e
       0.47760978 0.5863799 0.7408151 0.2106316
000100 3d 53 4e 3e 84 16 75 bd 67 96 74 be f3 d3 fc 3d
       0.2014894 -0.059835926 -0.23885499 0.123451136
000110 99 c5 21 bd d0 6a a0 bd dd 0c b8 3e 42 d8 8e be
       -0.039495084 -0.07832873 0.35947314 -0.27899367
000120 09 82 91 3c 23 23 19 be e5 f3 e7 3c 38 ff 63 be
       0.0177622 -0.1495481 0.02831454 -0.22265327
000130 ff 81 aa 3e b9 eb aa be 5c 24 90 be 73 45 6e 3d
       0.33302304 -0.33382967 -0.2815274 0.0581717
000140 89 65 9c 3d 6b c9 81 3c 3a 81 12 bf d7 cd 3b 3d
       0.07636554 0.015843114 -0.57228434 0.0458506
000150 40 89 35 3e 12 84 ee bd 27 a4 eb 3e 89 b1 e9 3d
       0.17728138 -0.11646284 0.46023676 0.11410815
000160 6b 18 56 be b8 38 66 be 2f 26 19 be 92 6d da 3e
       -0.20907752 -0.22482574 -0.14955972 0.4266172
000170 72 5e b3 3d c9 7d e4 be 20 27 d6 be ac 98 d1 3e
       0.087582484 -0.44627216 -0.41826725 0.40936792
000180 52 76 ae be 70 f2 09 bf a9 13 a9 be 47 95 96 3e
       -0.34074646 -0.53885555 -0.33022812 0.29410765
000190 ff 9e 10 3f 20 c8 c1 bd 87 35 c5 be e8 6e 18 3f
       0.5649261 -0.09461999 -0.385174 0.5954423
0001a0 1b f6 9e bd 72 8e c4 be a9 4d 32 bf c9 ce 82 3e
       -0.07761785 -0.38389927 -0.6964975 0.2554839
0001b0 70 50 3d bd 3b b6 87 3e ac 66 61 be 0e 48 86 be
       -0.04621929 0.26506218 -0.22011822 -0.26226848
0001c0 07 f2 b3 bd a0 35 19 3f 84 42 40 3e c7 f0 62 3e
       -0.087863974 0.5984745 0.18775374 0.22162162
0001d0 52 fd 90 be 38 c9 58 be 8a 34 92 3e 3f d6 9d 3e
       -0.28318268 -0.21170509 0.2855571 0.3082752
0001e0 4e 2c a6 3e 10 96 ab bd 19 50 7a be a4 e2 0a bf
       0.32455677 -0.083782315 -0.24444617 -0.54252076
0001f0 ce e4 4a 3e fa 92 fd 3e 39 c1 ec be da c7 6d 3e
       0.19813845 0.49526197 -0.46241167 0.23220769
000200 ef 23 d0 3e 09 9c ec 3e 53 40 33 3e a3 3d fc be
       0.40652415 0.46212795 0.17505006 -0.49265775
000210 33 66 b1 be a7 75 23 3f 98 c8 7a bd f8 6b cd 3e
       -0.34648284 0.638514 -0.061226457 0.40121436
000220 3b 22 fe be a0 c0 0d bf bb 31 ff 3e 3f ae d9 be
       -0.4963549 -0.5537205 0.4984263 -0.42515752
000230 aa 74 d1 be 2b 63 c4 be 34 95 2b be d7 f3 1c 3f
       -0.4090932 -0.3835691 -0.16756135 0.6130957

encoder_stack.1.msa.W_K.bias f4 [12]
000000 80 4e 61 bb 08 07 19 3d 51 2f b2 bc 0c 41 dd bc
       -0.0034379065 0.03736022 -0.021751078 -0.027008556
000010 64 47 c8 3c c7 a9 e6 3c b8 2d e2 3c 96 66 7e 3c
       0.024448104 0.028157128 0.027609691 0.015527388
000020 7c b1 95 bc 53 8d 05 bd 9d aa 5b 3c 92 54 57 3a
       -0.018273108 -0.03260548 0.013407377 0.0008214201
